checkpoint.pth (torch, 17323 bytes, 9 tensors)

fc1.weight f4 [32, 37]
0	0xbd20b68a	-0.039236583
1	0x3e1b71ca	0.15180126
2	0xbd13fc91	-0.036129538
3	0xbe02c367	-0.12769853
4	0x3dcf3f2a	0.101194695
5	0x3e9d1969	0.3068345
6	0xbd778dc0	-0.060437918
7	0xbc2a90a8	-0.010410465
8	0x3e378c6a	0.17924657
9	0xbf0092f9	-0.5022426
10	0xbe040b5a	-0.12894955
11	0xbdb69b12	-0.08916296
12	0xbba8706a	-0.005140354
13	0xbc943a19	-0.01809411
14	0xbce1dae7	-0.027570201
15	0xbd2e9062	-0.042618163
16	0x3da1059b	0.07862397
17	0x3dc5986e	0.09648214
18	0x3b1832f4	0.002322373
19	0x3e29e547	0.16591369
20	0x3dd2d4a0	0.10294461
21	0x3d8a6734	0.06757966
22	0x3d8116ee	0.063032016
23	0x3de3cb91	0.111228116
24	0xbd8f5bc1	-0.069999225
25	0x3d959814	0.07304397
26	0x3e0324ed	0.12807055
27	0x3d60c863	0.054878604
28	0xbe12972f	-0.14315484
29	0xbe3847f2	-0.17996195
30	0xbe94e1e9	-0.29078606
31	0x3ca12dcc	0.019675158
32	0x3e6b9d98	0.23009336
33	0x3ddc182a	0.107467964
34	0x3e5108d4	0.20413524
35	0xbd027420	-0.031849027
36	0xbcc4f576	-0.024042826
37	0x3e27a23d	0.16370483
38	0x3dce92aa	0.10086568
39	0x3dc271e6	0.09494381
40	0xbd5fa830	-0.054603755
41	0xbe39695e	-0.181066
42	0x3dd34e76	0.103176996
43	0xbe8e53ad	-0.27798215
44	0xbe065a32	-0.13120344
45	0xbd92c8df	-0.07167219
46	0x3e4acd28	0.19804823
47	0x3dd1897d	0.10231302
48	0xbd473209	-0.0486317
49	0x3cfe0577	0.031008465
50	0x3d260b88	0.04053834
51	0x3e3ed41c	0.18635601
52	0x3e570f48	0.21001923
53	0x3d7df23b	0.061998587
54	0xbda05ceb	-0.07830223
55	0xbdc714a3	-0.09720733
56	0xbe2ff47b	-0.17183106
57	0x3d307d21	0.043088082
58	0xbdd47a27	-0.10374861
59	0xbe62c9d5	-0.22147305
60	0xbe34f97a	-0.17673293
61	0x3e1d0c7f	0.15336798
62	0x3d434b72	0.047679372
63	0xbdfe0081	-0.1240244
64	0xbd87a7d0	-0.066238046
65	0x3de5173e	0.11186074
66	0x3e5e82e9	0.21729626
67	0x3d9f5609	0.07780082
68	0xbd22d458	-0.039753288
69	0x3d1e8651	0.038702313
70	0x3e8771e1	0.2645407
71	0x3f30f343	0.6912119
72	0xbc691193	-0.014225381
73	0x3d054558	0.032536834
74	0x3e3df4ca	0.18550411
75	0x3d54dec3	0.051970255
76	0x3d950d39	0.07277913
77	0xbbca7351	-0.0061782976
78	0xbe5cdd66	-0.21568832
79	0xbf00797c	-0.5018537
80	0x3c66009d	0.014038232
81	0x3e9fdf5a	0.3122509
82	0xbe97792d	-0.29584637
83	0xbfc530e7	-1.5405549
84	0xbe0c9338	-0.13728034
85	0x3dc234c2	0.09482719
86	0xbc555906	-0.013021713
87	0xbe806a15	-0.25080934
88	0xbdede123	-0.11615207
89	0x3e77201a	0.2413334
90	0xbee90b1a	-0.45516282
91	0x3e023de7	0.12718926
92	0x3d724b8a	0.05915407
93	0xbe017b80	-0.12644768
94	0xbe1a263c	-0.15053648
95	0xbd68fbd4	-0.056880787
96	0x3d749919	0.059716318
97	0xbd89a78f	-0.067214124
98	0xbf055ba9	-0.5209299
99	0xbdb29800	-0.08720398
100	0x3dd76dc5	0.10518984
101	0x3e674760	0.22585821
102	0xbdfd1859	-0.123581596
103	0xbf47e66c	-0.7808597
104	0xbdcb9795	-0.09941021
105	0xbe84eff8	-0.25964332
106	0x3d507955	0.05089696
107	0xbf0c04b5	-0.5469468
108	0xbe45be62	-0.19310907
109	0xbce874cc	-0.028376006
110	0x3ce7e6ef	0.02830836
111	0x3d7c18f5	0.06154724
112	0x3d8dd24c	0.069248766
113	0x3daf773a	0.085676625
114	0x3d974b18	0.0738737
115	0xbd037774	-0.03209634
116	0xbc9b3ff8	-0.018951401
117	0x3ab0a85c	0.0013477909
118	0x3d3b65fb	0.045751553
119	0x3dc6ad65	0.09701041
120	0x3d27bd24	0.040951863
121	0x3d06a067	0.032867815
122	0xbc16135a	-0.009159887
123	0xbd28dcd9	-0.04122624
124	0xbe31341a	-0.17305031
125	0xbe8d0811	-0.27545217
126	0xbdd64973	-0.10463228
127	0xbccecb9e	-0.025243577
128	0xbd4b8a0e	-0.049692206
129	0xbdb4f18a	-0.088351324
130	0xbcc0fd51	-0.02355829
131	0x3ea014b8	0.31265807
132	0xbea692c8	-0.3253386
133	0xbec4b2df	-0.38417718
134	0xbec4fb7c	-0.38473117
135	0xbfce9208	-1.6138315
136	0xbd106852	-0.035255738
137	0x3cf4c5d5	0.02987949
138	0x3da9e945	0.08296446
139	0x3de175b8	0.11008781
140	0x3e1bac3a	0.15202418
141	0xbd164adc	-0.036692485
142	0x3df104a4	0.11768463
143	0x3e2628d1	0.16226508
144	0x3e1948a4	0.14969116
145	0x3e804624	0.25053513
146	0x3bdc532a	0.006723781
147	0x3ba83fa7	0.005134541
148	0xbdeed05b	-0.116608344
149	0xbd9203c0	-0.071296215
150	0xbd936f83	-0.071990035
151	0xbd63b04c	-0.05558805
152	0x3d6a9fda	0.057281353
153	0x3e1dd0fd	0.15411754
154	0x3e9cd640	0.3063221
155	0x3d84a5d9	0.064769454
156	0xbe0fb625	-0.14034326
157	0xbeffce76	-0.49962205
158	0xbd09f478	-0.03368041
159	0xbb35ec60	-0.0027759299
160	0xbbd2f915	-0.0064383843
161	0xbda19f15	-0.078916706
162	0xbde9efd1	-0.114226945
163	0xbdecd577	-0.11564153
164	0xbc99f6fe	-0.018794533
165	0x3d6a0f39	0.057143424
166	0x3de1caa8	0.11024982
167	0x3e9d4de6	0.30723494
168	0xbcaf4cc1	-0.021398904
169	0x3d7bece4	0.061505213
170	0x3d275338	0.040850848
171	0x3d61b2c4	0.055102125
172	0x3bd50c26	0.0065016923
173	0x3ec4ee67	0.38463137
174	0xbf3c814f	-0.7363481
175	0xbea50986	-0.32233828
176	0xbf15b7a8	-0.5848336
177	0xc00f7014	-2.2412157
178	0x3c98d53f	0.018656371
179	0xbbe7b903	-0.0070716157
180	0x3df392f7	0.11893266
181	0x3e3fd17f	0.1873226
182	0x3e4edc29	0.20201172
183	0x3c601c2a	0.01367859
184	0x3b238264	0.0024949545
185	0x3dc1c608	0.094615996
186	0x3d8fc171	0.07019318
187	0x3d48ec66	0.049053572
188	0x3c11b2e5	0.008892749
189	0xbc0119dc	-0.0078797005
190	0x3efee181	0.4978142
191	0xbea601e4	-0.32423317
192	0xbed1ab1b	-0.40950856
193	0xbf04e90e	-0.51918113
194	0xc013c56b	-2.3089244
195	0xbd4d8890	-0.050179064
196	0x3cb751e3	0.022377914
197	0x3cbd183b	0.023082843
198	0x3cded230	0.027199835
199	0x3daa6aa9	0.08321125
200	0x3d4f371d	0.05058967
201	0x3db45e07	0.08806997
202	0x3cf4676c	0.029834472
203	0xbb45fc9f	-0.0030210388
204	0xbdbbdbaf	-0.09172761
205	0x3e1dd7ae	0.15414307
206	0x3df1d265	0.11807708
207	0x3da788c4	0.08180383
208	0x3e0e4f56	0.13897452
209	0x3dc7ad95	0.09749905
210	0x3d4071dc	0.046983585
211	0x3da9169c	0.082562655
212	0x3c9fb67b	0.019496193
213	0xbcc52f0b	-0.024070283
214	0xbdba1718	-0.09086436
215	0x3d4c0fa8	0.04981962
216	0x3de04310	0.10950291
217	0x3ce56b35	0.028005222
218	0x3d0e6a01	0.034769062
219	0xbc75a09a	-0.014991904
220	0x3ad18157	0.0015983981
221	0x3c9aae65	0.018881986
222	0x3ec1e86f	0.37872645
223	0xbf1785a2	-0.5918828
224	0xbeca625f	-0.39528176
225	0xbea4bdac	-0.32175958
226	0xbff57a79	-1.9178001
227	0xbce68fd1	-0.028144749
228	0xbd1d9246	-0.038469575
229	0xbbfca49d	-0.007710053
230	0x3d4e1d02	0.050320633
231	0x3d4dc69b	0.050238233
232	0x3d768667	0.06018677
233	0x3d5380ed	0.051636625
234	0x3cc316f6	0.02381466
235	0x3d0e30f2	0.034714647
236	0xbd6cdb80	-0.05782652
237	0xbcc7e391	-0.024400504
238	0x3e13f2a8	0.14448035
239	0xbc2a01fd	-0.010376451
240	0xbe03bf68	-0.12865984
241	0xbe7e25a2	-0.24819043
242	0xbc70c2d6	-0.01469489
243	0x3c973890	0.018459588
244	0xbc9ff78d	-0.019527221
245	0x3d248d26	0.040173672
246	0x3c6f95bd	0.014623103
247	0xbe00f87b	-0.12594788
248	0xbd3babb4	-0.045818046
249	0x3d0e9c73	0.03481717
250	0x3e27483b	0.16336147
251	0x3e8f016d	0.27930775
252	0xbcd3ff19	-0.025878476
253	0x3d2b7ca1	0.041866902
254	0x3adfa7fe	0.0017063615
255	0x3d86601e	0.06561302

fc1.bias f4 [32]
0	0xbdc87dcb	-0.09789618
1	0xbe03aa8b	-0.12858026
2	0x3d4464d3	0.047947716
3	0x3e05b569	0.13057484
4	0x3e696d3e	0.22795579
5	0x3b5a6f7a	0.0033330605
6	0x3d021907	0.03176215
7	0x3e0f53ba	0.13996783
8	0x3e3ca540	0.18422413
9	0x3de72342	0.11286022
10	0x3dad4a84	0.08461478
11	0xbc8bbf74	-0.017059065
12	0x3e016492	0.12636021
13	0xbca513d8	-0.020151064
14	0x3dd895bb	0.10575434
15	0x3b00d190	0.001965616
16	0xbd406de3	-0.046979796
17	0x3e462fbe	0.1935415
18	0x3d5289a9	0.051400814
19	0xbd9e213e	-0.07721184
20	0xbd704798	-0.058662027
21	0xbd6eba81	-0.058283333
22	0xbe26637b	-0.16248886
23	0x3e14acf4	0.14519101
24	0x3dff61ba	0.12469812
25	0xbdd7f32e	-0.1054443
26	0x3c6c31f5	0.014416208
27	0xbd45a6b0	-0.04825467
28	0x3da45f8d	0.08026037
29	0xbe04fce1	-0.1298709
30	0xbe1fdb2a	-0.15610948
31	0xbe39b1d6	-0.18134245

fc2_val.weight f4 [32, 32]
0	0xbd195114	-0.037430838
1	0x3dcf5a0f	0.10124599
2	0x3db10b97	0.08644789
3	0x3e52e6f1	0.2059591
4	0x3f069e52	0.5258533
5	0xbe149bd4	-0.14512569
6	0x3d984111	0.074342854
7	0xbd3f7d67	-0.046750452
8	0xbd4f0e6b	-0.05055086
9	0x3d9a3707	0.07530027
10	0xba365b23	-0.00069563295
11	0xbe6d1176	-0.23151192
12	0xbc8aab59	-0.016927408
13	0xbdcddf24	-0.10052326
14	0x3dc5e1fb	0.09662243
15	0x3f0926c2	0.53574765
16	0xbe6787ed	-0.22610445
17	0xbeafa6ad	-0.3430685
18	0x3d2ee19a	0.04269562
19	0x3c4147b2	0.011796879
20	0x3dda2121	0.1065085
21	0xbd8d617b	-0.069033585
22	0x3e54f3d1	0.20796134
23	0xbf14c065	-0.5810607
24	0xbe906110	-0.28199053
25	0x3e8fef50	0.28112268
26	0x3d944391	0.0723945
27	0xbe86e4ee	-0.26346534
28	0xbde72fb0	-0.112883925
29	0xbd90e8a5	-0.070756234
30	0x3d63b251	0.055589978
31	0xbd85970f	-0.06522953
32	0x3d1ac6d7	0.037787285
33	0xbd6e0f04	-0.05811979
34	0x3d8e3686	0.06943993
35	0x3eebe779	0.46075037
36	0x3db92aef	0.09041392
37	0xbe9f4020	-0.3110361
38	0x3f129f54	0.57274365
39	0x3df71999	0.12065429
40	0x3e200f38	0.15630805
41	0xbe1aa8e8	-0.15103495
42	0x3e70f2a3	0.23530059
43	0xbdae5d59	-0.085138984
44	0xbe1b68d9	-0.15176715
45	0x3d36e4ed	0.044651914
46	0x3e0a00a3	0.13476805
47	0x3daa694c	0.08320865
48	0x3dc4bc54	0.09606233
49	0xbe2b6574	-0.1673792
50	0xbc17def1	-0.009269462
51	0x3db77c24	0.08959225
52	0xbc9ab2cb	-0.018884083
53	0xbe53f10e	-0.20697424
54	0xbd9ca0fc	-0.07647893
55	0x3dafce05	0.08584217
56	0xbe31d43a	-0.17366114
57	0xbd074a71	-0.033029977
58	0x3e4a3cbb	0.1974973
59	0xbe878ada	-0.26473123
60	0x3e1f1682	0.1553593
61	0x3d95e1c0	0.07318449
62	0x3ce1562b	0.027506908
63	0x3c8dbed9	0.017302917
64	0xbe7ca057	-0.2467054
65	0xbc8b4803	-0.017002111
66	0x3e40ceba	0.1882886
67	0xbe769ae9	-0.24082531
68	0x3ed4904e	0.41516346
69	0xbe916445	-0.28396812
70	0x3cdc9967	0.026928617
71	0xbbc7cea2	-0.0060976306
72	0xbe652bf5	-0.2238005
73	0xbe9e846e	-0.3096041
74	0x3e1fb997	0.1559814
75	0xbe220f49	-0.15826143
76	0x3e828f38	0.25499892
77	0x3c0faeca	0.0087697
78	0x3d638966	0.055550955
79	0xbeea9ff6	-0.45825166
80	0x3cbf53af	0.023355333
81	0xbed9bcb0	-0.4252677
82	0x3db67d90	0.08910668
83	0xbe06b8ab	-0.13156383
84	0xbe9295f9	-0.28630045
85	0xbd8ed53e	-0.069742665
86	0xbdaac5ba	-0.083384946
87	0x3edf342b	0.43594489
88	0x3ebb35d4	0.36564505
89	0x3ce81e42	0.02833474
90	0xbe39bdb9	-0.1813878
91	0xbd79c110	-0.060975134
92	0xbe0b0589	-0.1357633
93	0xbd587c7d	-0.052853096
94	0xbd95add4	-0.07308546
95	0xbe87f486	-0.26553744
96	0xbeb22a10	-0.34797716
97	0xbed77d69	-0.42087868
98	0x3e528014	0.2055667
99	0x3e75544f	0.23957942
100	0xbe9aa8fd	-0.30207053
101	0xbef5fde5	-0.4804527
102	0xbd4852d8	-0.04890713
103	0x3e05bb1b	0.13059656
104	0x3dbb6571	0.09150208
105	0x3d4f120f	0.05055433
106	0xbdb9d04e	-0.09072934
107	0xbe8c7040	-0.2742939
108	0x3d950708	0.07276732
109	0x3e4d143f	0.20027255
110	0x3e0880a3	0.13330321
111	0x3eaedcbf	0.3415279
112	0x3d9cd24c	0.076572984
113	0xbe9adf4f	-0.30248496
114	0xbbd64972	-0.006539517
115	0xbd09a2fa	-0.033602692
116	0x3ddbcddf	0.10732626
117	0xbda8ccb7	-0.08242171
118	0xbe274a01	-0.16336824
119	0xbd889d13	-0.066705845
120	0xbd62da49	-0.055383954
121	0xbea035a8	-0.31290936
122	0xbdfcce64	-0.123440534
123	0xbe723cd7	-0.23656021
124	0xbecd4552	-0.4009195
125	0x3d468430	0.048465908
126	0xbd0b40eb	-0.033997457
127	0x3e121381	0.14265253
128	0xbea4ea0f	-0.32209823
129	0xbdaa8e92	-0.083279744
130	0x3e7d2982	0.24722865
131	0x3dfbacd0	0.12288821
132	0x3e5c4901	0.21512224
133	0x3e30ee19	0.17278327
134	0x3e8f17c5	0.27947822
135	0x3e569853	0.20956545
136	0x3e222870	0.15835738
137	0x3ce0c8a5	0.027439425
138	0x3dca483e	0.0987706
139	0x3e53130a	0.20612732
140	0xbcb3611b	-0.02189689
141	0xbe899a27	-0.2687542
142	0xbd804361	-0.062628515
143	0x3e8dd014	0.27697814
144	0x3e2181c8	0.15772164
145	0x3d9871e8	0.07443601
146	0xbd1f1883	-0.038841736
147	0xbe7cf931	-0.24704434
148	0x3d0597f9	0.032615636
149	0xbd6c22a0	-0.05765021
150	0xbe289eba	-0.164668
151	0x3e8f6f6a	0.2801469
152	0xbc9fe698	-0.019519135
153	0x3dc62508	0.09675032
154	0x3ea01045	0.31262413
155	0xbe107bb8	-0.14109695
156	0xbe42ad04	-0.19011313
157	0xbe6a14c4	-0.22859484
158	0xbd8ef2cf	-0.06979906
159	0x3dcffcb9	0.10155625
160	0x3cabfa80	0.020993471
161	0x3d916dae	0.07100998
162	0x3cc531bf	0.024071572
163	0xbe01eb73	-0.12687473
164	0xbdf9a1c7	-0.1218906
165	0xbeb22f96	-0.3480193
166	0xbbaa8de1	-0.0052049016
167	0x3d67e72c	0.056616947
168	0xbe32d3cb	-0.17463605
169	0x3dd72ece	0.10506974
170	0xbd86e30f	-0.06586277
171	0xbe82a11a	-0.25513536
172	0x3bb16aac	0.0054143276
173	0xbd7ed4df	-0.06221473
174	0xbd466219	-0.048433397
175	0xbd3d91fe	-0.046281807
176	0x3e89a1dc	0.268813
177	0x3e032f2c	0.12810963
178	0x3df97f7f	0.12182521
179	0xbe952cb6	-0.29135674
180	0x3e294629	0.1653067
181	0xbe3c447b	-0.18385498
182	0x3e1571a7	0.14594136
183	0x3db9268f	0.090405576
184	0xbe198c5e	-0.14994952
185	0x3d87725f	0.066136114
186	0xbde2ff75	-0.11083881
187	0x3abe2835	0.0014507832
188	0xbcd6072a	-0.026126463
189	0xbe022785	-0.12710388
190	0x3df2f5cd	0.11863289
191	0xbe35afe9	-0.17742886
192	0xbd5aa3e7	-0.053378966
193	0xbe38f9fe	-0.18064114
194	0x3ebba56c	0.36649644
195	0x3e25828f	0.16163085
196	0x3e179133	0.14801483
197	0x3e0ade4d	0.13561364
198	0x3ea2674d	0.31719437
199	0xbc913675	-0.017726162
200	0x3d96d4e8	0.073648274
201	0xbd9b7b60	-0.07591891
202	0xbe2dfd6f	-0.16991208
203	0xbd7c6f4f	-0.06162959
204	0xbde95d8e	-0.11394797
205	0xbe548b2b	-0.20756213
206	0xbeca805b	-0.39551052
207	0xbe9d7efb	-0.3076094
208	0xbddea833	-0.10871925
209	0xbdf924b7	-0.12165206
210	0x3d8e9a17	0.06962984
211	0x3db4b9ed	0.08824525
212	0xbdebde90	-0.1151706
213	0xbed44e3e	-0.41465944
214	0xbec62912	-0.3870321
215	0x3d021b6c	0.031764433
216	0x3e23e4e7	0.16005288
217	0xbf0e3db0	-0.5556288
218	0xbe86d7dc	-0.26336563
219	0xbe8e6969	-0.27814797
220	0xbd08de66	-0.03341522
221	0xbeeb9943	-0.46015367
222	0xbe853700	-0.26018524
223	0x3dab2a46	0.083576724
224	0xbe4bb7c9	-0.19894327
225	0xbe741b3c	-0.23838514
226	0xbdf2ce7b	-0.11855789
227	0xbf00b6dd	-0.5027903
228	0xbe9624fe	-0.29325098
229	0xbd55bb87	-0.052180793
230	0x3e5f3a97	0.21799694
231	0xbc2d1d5a	-0.01056608
232	0x3cb3f6b4	0.021968223
233	0xbe36caeb	-0.17850845
234	0x3e411a0d	0.18857594
235	0x3dce976c	0.10087475
236	0x3c22b1c2	0.009930076
237	0xbc55f93b	-0.013059909
238	0xbc06b777	-0.008222452
239	0xbef88d31	-0.4854522
240	0x3aa592b8	0.0012632227
241	0xbe69e946	-0.22842893
242	0x3dd3aaa2	0.1033528
243	0x3cced8d2	0.025249872
244	0xbc9f01c3	-0.01941002
245	0xbda2d209	-0.07950217
246	0xbe4e7416	-0.20161471
247	0xbed0bbac	-0.40768182
248	0xbdea68fa	-0.11445804
249	0xbeaec199	-0.34132078
250	0x3ebcff71	0.36913636
251	0xbb6ddea7	-0.0036296041
252	0x3e6bf737	0.23043524
253	0x3db08034	0.08618203
254	0x3e028182	0.12744716
255	0x3b813a9d	0.003943755

fc2_val.bias f4 [32]
0	0x3e520efe	0.20513532
1	0xbd84d3f3	-0.064857386
2	0xbd8df14e	-0.06930791
3	0xbd1e3f8b	-0.038634818
4	0xbddac577	-0.10682195
5	0xbddaf1c3	-0.10690644
6	0xbdda05f7	-0.10645669
7	0xbc8ef213	-0.017449414
8	0x3e8a924c	0.2706474
9	0xbdf24874	-0.118302256
10	0xbdd92fcb	-0.10604819
11	0x3d80787a	0.06272979
12	0x3edfa55a	0.4368084
13	0xbaa429e2	-0.0012524689
14	0xbde0c419	-0.10974903
15	0x3e1fb540	0.15596485
16	0x3ccbd4d3	0.024881756
17	0xbd8a2d4c	-0.06746921
18	0xbda2355e	-0.07920335
19	0x3e156971	0.14591004
20	0x3e9983c1	0.29983333
21	0xbd9e5d56	-0.07732646
22	0x3ea62247	0.32448027
23	0xbd1e54e8	-0.03865519
24	0x3e807f9e	0.25097364
25	0xbe1cf23b	-0.15326779
26	0x3e9a2b54	0.30111182
27	0xbcee8ee4	-0.02912087
28	0xbdcc7d6a	-0.09984858
29	0xbe706c36	-0.23478779
30	0x3d946728	0.07246238
31	0x3ebcd9b1	0.36884835

fc3_val.weight f4 [1, 32]
0	0x3e9c06c1	0.30473903
1	0x3e828c0c	0.25497472
2	0x3f1d6238	0.61477995
3	0x3f0530bd	0.52027494
4	0xbdfb5e5e	-0.122738585
5	0xbdde2a7b	-0.10847946
6	0x3ed847ab	0.42242178
7	0x3ecac7e8	0.3960564
8	0x3e2001f2	0.15625742
9	0xbe6b7826	-0.22995052
10	0xbdf68f9e	-0.120391116
11	0xbe83e818	-0.2576301
12	0x3e563398	0.20918119
13	0xbe29d351	-0.16584517
14	0xbe4d3b25	-0.20042093
15	0x3e9cefbc	0.30651653
16	0x3ebb10a9	0.36536148
17	0xbeae69b4	-0.3406502
18	0x3ea434fc	0.32071674
19	0x3e4bbd84	0.19896513
20	0x3e566192	0.20935658
21	0x3e7d0930	0.24710536
22	0x3e59194f	0.2120106
23	0xbf1eb40f	-0.619935
24	0x3e9fa2cd	0.31178895
25	0x3ea0c75b	0.31402096
26	0x3e761bb7	0.2403401
27	0xbe8032ff	-0.25038907
28	0xbd73a12e	-0.059479885
29	0xbec98887	-0.39361975
30	0xbeb1c304	-0.34719098
31	0x3e4ac518	0.19801748

fc2_adv.weight f4 [32, 32]
0	0xbe4ac628	-0.19802153
1	0x3d591f66	0.05300846
2	0xbe0b3546	-0.13594541
3	0x3e082d97	0.13298641
4	0x3bc1a878	0.0059099756
5	0x3ccda4f5	0.025103072
6	0x3d9e831f	0.07739853
7	0xbe0a6cf8	-0.13518131
8	0x3da5903b	0.080841504
9	0xbc6a633a	-0.014305884
10	0xbe21a6bf	-0.15786265
11	0xbb3c6d92	-0.0028751832
12	0xbb1a38f6	-0.0023532487
13	0xbe037e34	-0.12841111
14	0xbde35fca	-0.11102255
15	0xbe3c4e19	-0.18389167
16	0x3e262f01	0.16228868
17	0x3de182e8	0.110112965
18	0xbd378c7d	-0.044811714
19	0xbe355f6d	-0.17712183
20	0xbd4eeb38	-0.05051729
21	0xbca85246	-0.020547044
22	0x3bf772d4	0.0075515304
23	0xbd3f335b	-0.046679836
24	0x3cc46042	0.02397168
25	0xbdcaff34	-0.099119574
26	0xbe480d77	-0.19536386
27	0xbe545eb0	-0.20739245
28	0xbe45b5e7	-0.19307671
29	0xbdb78731	-0.089613326
30	0x3d5170ce	0.05113297
31	0x3b80c5ce	0.00392983
32	0xbb32a761	-0.002726041
33	0x3d7a8f2f	0.061171707
34	0x3e74388b	0.23849694
35	0x3dc2b4da	0.09507151
36	0xbf1ff0f0	-0.62477016
37	0xbeba3ab9	-0.36372927
38	0xbd4e4433	-0.05035801
39	0xbddb54de	-0.107095465
40	0x3d8cbe31	0.06872214
41	0x3c52ad7f	0.0128587475
42	0x3d2034c5	0.039112825
43	0x3dc11ac4	0.09428933
44	0xbe56370f	-0.2091944
45	0xbca13d8f	-0.019682674
46	0xbd92c58d	-0.07166586
47	0x3ed728ba	0.4202326
48	0xbe358776	-0.17727455
49	0xbde2b6d4	-0.11070028
50	0x3d1b773d	0.03795551
51	0x3da7a27d	0.08185289
52	0x3e807a54	0.2509333
53	0x3c6a9c31	0.0143194655
54	0x3e37b918	0.17941701
55	0xbe27baf3	-0.16379909
56	0xbce080f1	-0.027405234
57	0x3d1270ab	0.03575198
58	0x3e00a229	0.12561859
59	0xbe07efd5	-0.13275082
60	0x3d642dde	0.055707805
61	0x3c5cf952	0.013487177
62	0xbd824775	-0.063612856
63	0xbd6dc353	-0.058047604
64	0xbcae602d	-0.021286095
65	0xbd0840d8	-0.033264965
66	0x3d437d42	0.047726877
67	0x3f143a59	0.5790153
68	0xbdfa2c99	-0.122155376
69	0xbdeb1c77	-0.114800386
70	0xbec2782b	-0.37982306
71	0x3dab8a2c	0.083759636
72	0xbddcdbf3	-0.107841395
73	0x3dbec67b	0.09315201
74	0x3d8984e9	0.06714804
75	0xbc086ccd	-0.008326721
76	0x3c55c424	0.013047252
77	0xbe1563ad	-0.14588805
78	0xbc410f38	-0.011783414
79	0x3f09eb8e	0.5387505
80	0xbe1aed7f	-0.1512966
81	0xbbb73ddd	-0.0055920915
82	0xbd558cc3	-0.052136194
83	0x3d748933	0.059701156
84	0x3e04d964	0.12973553
85	0xbe87bbcf	-0.26510474
86	0xbe9552d3	-0.29164752
87	0xbe8e37ff	-0.27777097
88	0x3df20fd9	0.11819429
89	0x3d927310	0.07150853
90	0xbec48e60	-0.38389874
91	0x3d11a113	0.035554003
92	0x3da15177	0.07876866
93	0xbe1408d0	-0.14456487
94	0xbd763d06	-0.06011679
95	0x3d72d0c7	0.059281137
96	0x3e1e901c	0.15484661
97	0xbe809437	-0.2511308
98	0x3ebefaac	0.37300622
99	0x3dba5e7c	0.09100053
100	0x3d5f2c32	0.054485507
101	0xbe9a132b	-0.3009275
102	0xbdbe447c	-0.09290406
103	0xbe6eb75e	-0.23312137
104	0x3cfacb39	0.030614482
105	0xbdccc536	-0.099985525
106	0xbdaeca97	-0.08534735
107	0xbe1c0132	-0.15234831
108	0x3cd95475	0.02652953
109	0x3d12b5d0	0.03581792
110	0xbe26a2d5	-0.16273053
111	0xbef3efb6	-0.47643822
112	0x3d814f6d	0.063139774
113	0x3bb9a1da	0.005665046
114	0x3d88110e	0.06643878
115	0x3e1109a5	0.14163835
116	0x3e036297	0.12830578
117	0xbefb6b1d	-0.49105158
118	0xbdb99ba7	-0.090628915
119	0xbb762a90	-0.003756199
120	0xbdd4a82a	-0.10383637
121	0xbe65ef97	-0.22454678
122	0x3e01a18d	0.12659283
123	0xbe0890bd	-0.13336463
124	0xbe5316d4	-0.20614177
125	0x3db6c590	0.08924401
126	0x3e33d806	0.17562875
127	0xbc98f367	-0.01867075
128	0x3ea23089	0.31677654
129	0x3d7dc483	0.061954986
130	0x3e98ce28	0.29844785
131	0x3e77231c	0.24134487
132	0x3e9aa021	0.30200294
133	0x3e1cc310	0.15308785
134	0xbe0db7bd	-0.13839622
135	0xbe82faad	-0.25581875
136	0x3e51df99	0.20495452
137	0x3ddf1927	0.10893469
138	0xbe466863	-0.19375758
139	0xbd258541	-0.040410284
140	0xbe31f5b3	-0.17378883
141	0xbd45727f	-0.048204895
142	0xbc05b49c	-0.008160736
143	0xbe887a28	-0.26655698
144	0xbe5fd826	-0.21859798
145	0x3e543647	0.2072383
146	0xbcf9530b	-0.030435106
147	0xbd3e3752	-0.046439476
148	0xbec7ba29	-0.39009216
149	0x3d664ade	0.056223743
150	0xbeac9671	-0.33708528
151	0xbe090348	-0.13380158
152	0xbda33443	-0.079689525
153	0xbe17e097	-0.14831768
154	0x3e15622c	0.14588231
155	0x3d1c2e34	0.03813
156	0xbc56b0c5	-0.013103669
157	0x3d102453	0.03519089
158	0x3dc953ac	0.09830412
159	0x3e2e703f	0.17035006
160	0xbdf591bf	-0.119906895
161	0x3d44c628	0.04804054
162	0xbdd60e9f	-0.104520075
163	0xbdd5e023	-0.10443141
164	0x3e16d2c8	0.14728844
165	0x3de040ee	0.10949884
166	0xbe109388	-0.14118779
167	0xbe16aad9	-0.1471361
168	0xbdae346c	-0.085060924
169	0xbe6b958a	-0.23006263
170	0xbe45628a	-0.19275871
171	0x3e00fa69	0.12595524
172	0x3d9e501f	0.07730126
173	0xbe6a4bdc	-0.228805
174	0xbe34090f	-0.1758158
175	0xbdfa3560	-0.12217212
176	0xbdb29b70	-0.087210536
177	0xbd3e12d1	-0.046404663
178	0x3d2b354f	0.041798886
179	0xbdae4230	-0.08508718
180	0xbe4ffa59	-0.20310344
181	0x3d95a85f	0.07307505
182	0xbea082cf	-0.313498
183	0xbdf933ad	-0.121680595
184	0x3d399454	0.045307472
185	0xbefacebd	-0.48985854
186	0xbea2e4bd	-0.31815138
187	0xbd856693	-0.06513705
188	0x3e3da273	0.18519
189	0xbd4509ea	-0.048105158
190	0xbd9d0024	-0.076660424
191	0x3dc479ff	0.095935814
192	0x3c4b4cea	0.012408474
193	0xbcb649e7	-0.022252036
194	0x3d9846b2	0.07435359
195	0x3e8a9fd2	0.27075058
196	0xbe8bb2e4	-0.2728492
197	0xbe18d0c9	-0.14923395
198	0xbda95f8f	-0.082701795
199	0xbe0a02e2	-0.13477662
200	0x3c99ac71	0.018758984
201	0x3d4c0abf	0.049814936
202	0x3db8e402	0.09027864
203	0xbe1981a2	-0.14990857
204	0x3e0c8a76	0.13724694
205	0xbc0eff72	-0.008727895
206	0xbc233933	-0.009962368
207	0x3f13662d	0.5757778
208	0xbc249e3a	-0.01004749
209	0xbd8c44ba	-0.06849046
210	0xbdf378ef	-0.118883006
211	0x3c6e11bb	0.014530594
212	0xbda7949a	-0.081826404
213	0xbdd32e04	-0.10311511
214	0xbdfdda6d	-0.12395177
215	0xbd61cec0	-0.055128813
216	0xbe9c717e	-0.30555338
217	0x3d1ba5f5	0.038000066
218	0xbe9c70e7	-0.30554888
219	0x3cef1a54	0.029187359
220	0x3c4b2ce5	0.01240084
221	0x3c13a750	0.009012058
222	0xbe91e2fa	-0.28493482
223	0x3d1a9ddd	0.037748206
224	0x3d5d5c5b	0.054043155
225	0x3c9ac4a0	0.018892586
226	0xbdcead06	-0.10091595
227	0xbe3a49ed	-0.18192263
228	0x3dcbabc5	0.09944872
229	0x3e5fb409	0.21846022
230	0xbc59e5b9	-0.013299399
231	0xbdf894d9	-0.121377654
232	0x3b174d0d	0.0023086697
233	0x3ca00c76	0.019537192
234	0xbe37b05a	-0.17938367
235	0xbe066888	-0.13125813
236	0xbe819152	-0.25306183
237	0xbda77ede	-0.08178495
238	0xbdecfe14	-0.11571899
239	0xbee71d6d	-0.45139638
240	0x3dbd50cc	0.092439264
241	0x3e5e8641	0.21730901
242	0xbc9f44f6	-0.019442063
243	0xbda6532d	-0.08121333
244	0xbc53acd3	-0.0129196225
245	0x3e341273	0.17585163
246	0xbd9186a5	-0.071057595
247	0xbe2d6bcf	-0.16935657
248	0x3e04bbc5	0.12962253
249	0xbdc0a2bb	-0.094060384
250	0xbda1ea6f	-0.07906043
251	0x3d35d0b0	0.044388473
252	0x3d4ba282	0.049715526
253	0xbe0a88f9	-0.13528813
254	0xbdcef832	-0.10105933
255	0x3dd3c4d8	0.10340279

fc2_adv.bias f4 [32]
0	0xbe400dce	-0.18755266
1	0x3dbaba6b	0.09117588
2	0x3cec66d1	0.02885762
3	0x3d4a4ec2	0.049391516
4	0xbe3088cd	-0.17239685
5	0xbe3c4210	-0.18384576
6	0xbdb2a5b9	-0.08723015
7	0x3dea1f66	0.1143177
8	0xbe07eab2	-0.13273123
9	0x3cfef132	0.03112087
10	0xbde86b35	-0.11348573
11	0x3c792143	0.015205684
12	0xbc931856	-0.01795594
13	0xbd50318d	-0.050828505
14	0xbdbee67c	-0.09321305
15	0xbe2930dd	-0.16522546
16	0xbd368c5a	-0.044567443
17	0x3d1002e1	0.035158996
18	0x3e09c709	0.13454832
19	0xbdabb207	-0.083835654
20	0xbc9025d6	-0.017596167
21	0xbbe47104	-0.0069714803
22	0x3dcb082b	0.09913667
23	0xbd2b5bdf	-0.041835662
24	0xbcbba09c	-0.022903733
25	0x3d75e79a	0.060035326
26	0x3d915a33	0.07097282
27	0xbdc8004f	-0.09765684
28	0x3d4fa076	0.050690137
29	0xbdf22c0f	-0.1182481
30	0xbd4b286d	-0.0495991
31	0xbd007fae	-0.031371765

fc3_adv.weight f4 [4, 32]
0	0xbe05f645	-0.13082226
1	0xbe8d274a	-0.27569038
2	0xbd8aa339	-0.067694135
3	0xbe8c9dc5	-0.2746412
4	0xbde882ec	-0.11353096
5	0x3cd45d12	0.025923286
6	0xbdc4bdbd	-0.09606502
7	0x3d6b7805	0.057487506
8	0x3d83b77d	0.06431482
9	0x3e027ee5	0.12743719
10	0xbe0c603f	-0.1370859
11	0x3d4b05e3	0.04956616
12	0xbd375e19	-0.044767473
13	0x3d944abd	0.07240818
14	0xbccbc6bb	-0.024875036
15	0xbdef8867	-0.116959386
16	0x3f3a7446	0.7283367
17	0xbe4c621f	-0.19959305
18	0xbe635383	-0.22199826
19	0xbd60c3f0	-0.05487436
20	0xbdadd5ec	-0.08488068
21	0x3e7fd8b5	0.24985011
22	0x3d4951c7	0.049150255
23	0x3ca1a663	0.01973266
24	0x3d3a75d0	0.04552251
25	0x3e2a2a24	0.16617638
26	0x3cf8d7f9	0.030376421
27	0xbc6e092b	-0.014528553
28	0x3d48c831	0.049019042
29	0x3d521460	0.051288962
30	0xbd008e82	-0.031385906
31	0xbec2d42e	-0.38052505
32	0x3cb2013d	0.021729106
33	0x3c3707e8	0.011171319
34	0xbdf9c4a7	-0.121957116
35	0x3de2c5a7	0.110728554
36	0xbd5e60c0	-0.054291487
37	0x3dc0baa5	0.094105996
38	0x3e710a2f	0.23539041
39	0x3d2edec0	0.0426929
40	0xbebaf96b	-0.36518416
41	0xbc86ce21	-0.016455712
42	0xbe9adbe8	-0.302459
43	0x3dba5dd5	0.09099928
44	0xbd6e8cf4	-0.058239892
45	0x3d84270f	0.06452762
46	0x3f1aab89	0.6041799
47	0xbe1429f8	-0.14469135
48	0x3df3ae15	0.11898438
49	0x3e061bdd	0.13096566
50	0x3da7fd3e	0.08202599
51	0x3e702f5b	0.23455565
52	0x3dd31636	0.10306971
53	0x3df71a9f	0.120656244
54	0x3d4c15b5	0.04982539
55	0x3da132e6	0.07871036
56	0xbb23a2f2	-0.002496895
57	0x3c328e7c	0.010898229
58	0xbe22998d	-0.15878887
59	0xbd93b52c	-0.0721229
60	0x3e09c9a7	0.1345583
61	0x3f0e296c	0.55531955
62	0xbe067c88	-0.13133442
63	0x3ebea265	0.37233272
64	0xbd518be8	-0.051158816
65	0x3d7f0b6e	0.06226676
66	0x3ea250cc	0.31702268
67	0x3e1aa870	0.15103316
68	0x3dec91d4	0.11551252
69	0xbe917532	-0.28409725
70	0x3e802303	0.25026712
71	0xbe2805b3	-0.16408424
72	0x3e2bb65f	0.16768788
73	0xbcbfe155	-0.023422876
74	0x3d900c77	0.070336275
75	0x3c9a2609	0.018816965
76	0xbe20a2e9	-0.15687145
77	0xbe6b96ba	-0.23006716
78	0xbe8a1a3b	-0.26973137
79	0x3ea79e3f	0.3273792
80	0x3db2c159	0.087282844
81	0xbe5b0dc2	-0.21391967
82	0x3d5129e3	0.051065337
83	0x3f0ca5fb	0.54940766
84	0x3f0c410b	0.5478675
85	0xbdc0130c	-0.09378633
86	0xbe08794d	-0.13327523
87	0xbe034bbe	-0.12821862
88	0x3e3323f3	0.17494182
89	0x3ad060b3	0.0015897959
90	0xbf008fb0	-0.5021925
91	0xbd083b86	-0.03325989
92	0xbd0c57a4	-0.034263268
93	0x3e002854	0.12515384
94	0xbdcbc79d	-0.099501826
95	0xbbd952be	-0.006632178
96	0xbd912e3c	-0.07088897
97	0xbb099fce	-0.0020999792
98	0xbead1ae3	-0.33809575
99	0xbdb7b4ee	-0.089700565
100	0x3ded5814	0.11589065
101	0xbe5d0409	-0.2158357
102	0xbf05a217	-0.52200454
103	0xbb23734c	-0.0024940548
104	0xbe3ee5f7	-0.18642412
105	0xbe5df25b	-0.21674483
106	0xbd1c7b02	-0.038203247
107	0xbe13b4b4	-0.14424402
108	0x3dfa746f	0.12229239
109	0xbe572cb1	-0.21013142
110	0xbe9aea8e	-0.30257076
111	0x3c9f9f13	0.019485032
112	0xbeaa7fe5	-0.333007
113	0x3e6102f5	0.21973784
114	0xbd4ade76	-0.04952856
115	0xbeb6224d	-0.35573044
116	0xbe854a0a	-0.2603305
117	0xbdc41497	-0.0957424
118	0x3e728f97	0.23687588
119	0x3dea2288	0.114323676
120	0xbe0c96ae	-0.13729355
121	0xbe87c220	-0.26515293
122	0x3e698d8f	0.22807907
123	0x3e8aba98	0.27095485
124	0xbe1355cc	-0.14388198
125	0xbef82dcd	-0.48472443
126	0x3d054989	0.03254083
127	0xbddb83e3	-0.10718515

fc3_adv.bias f4 [4]
0	0x3d78b758	0.060721725
1	0xbd850496	-0.06495015
2	0x3cd2b751	0.025722178
3	0xbccd0c82	-0.025030378
